…
&lt;/span&gt;&lt;/span&gt;&lt;span style=&#34;display:flex;&#34;&gt;&lt;span&gt;                             ])
&lt;/span&gt;&lt;/span&gt;&lt;span style=&#34;display:flex;&#34;&gt;&lt;span&gt;model&lt;span style=&#34;color:#f92672&#34;&gt;.&lt;/span&gt;summary()
&lt;/span&gt;&lt;/span&gt;&lt;/code&gt;&lt;/pre&gt;&lt;/div&gt;&lt;pre&gt;&lt;code&gt;Model: &amp;quot;sequential&amp;quot;
_________________________________________________________________
Layer (type)                 Output Shape              Param #   
=================================================================
flatten (Flatten)            (None, 784)               0         
_________________________________________________________________
dense (Dense)                (None, 50)                39250     
_________________________________________________________________
activation (Activation)      (None, 50)                0         
_________________________________________________________________
dense_1 (Dense)              (None, 50)                2550      
_________________________________________________________________
activation_1 (Activation)    (None, 50)                0         
_________________________________________________________________
dense_2 (Dense)              (None, 10)                510       
_________________________________________________________________
activation_2 (Activation)    (None, 10)                0         
=================================================================
Total params: 42,310
Trainable params: 42,310
Non-trainable params: 0
_________________________________________________________________
&lt;/code&gt;&lt;/pre&gt;
&lt;h2 id=&#34;training-the-model&#34;&gt;Training the model&lt;/h2&gt;
&lt;div class=&#34;highlight&#34;&gt;&lt;pre tabindex=&#34;0&#34; style=&#34;color:#f8f8f2
…
&lt;/span&gt;&lt;/span&gt;&lt;span style=&#34;display:flex;&#34;&gt;&lt;span&gt;                             ])
&lt;/span&gt;&lt;/span&gt;&lt;span style=&#34;display:flex;&#34;&gt;&lt;span&gt;model&lt;span style=&#34;color:#f92672&#34;&gt;.&lt;/span&gt;summary()
&lt;/span&gt;&lt;/span&gt;&lt;/code&gt;&lt;/pre&gt;&lt;/div&gt;&lt;pre&gt;&lt;code&gt;Model: &amp;quot;sequential&amp;quot;
_________________________________________________________________
Layer (type)                 Output Shape              Param #   
=================================================================
flatten (Flatten)            (None, 784)               0         
_________________________________________________________________
dense (Dense)                (None, 50)                39250     
_________________________________________________________________
activation (Activation)      (None, 50)                0         
_________________________________________________________________
dropout (Dropout)            (None, 50)                0         
_________________________________________________________________
dense_1 (Dense)              (None, 50)                2550      
_________________________________________________________________
activation_1 (Activation)    (None, 50)                0         
_________________________________________________________________
dropout_1 (Dropout)          (None, 50)                0         
_________________________________________________________________
dense_2 (Dense)              (None, 10)                510       
_________________________________________________________________
activation_2 (Activation)    (None, 10)                0         
=================================================================
Total params: 42,310
Trainable params: 42,310
Non-trainable params: 0
_________________________________________________________________
&lt;/code&gt;&lt;/pre&gt;
&lt;div class=&#34;highlight&#34;&gt;&lt;pre tabindex=&#34;0&#34; style=&#34;color:#f8f8f2;background-color:#272822;-moz-tab-size:4;-o-tab-size:4;tab-size:4;-webk
…
&lt;/span&gt;&lt;/span&gt;&lt;span style=&#34;display:flex;&#34;&gt;&lt;span&gt;                             ])
&lt;/span&gt;&lt;/span&gt;&lt;span style=&#34;display:flex;&#34;&gt;&lt;span&gt;model&lt;span style=&#34;color:#f92672&#34;&gt;.&lt;/span&gt;summary()
&lt;/span&gt;&lt;/span&gt;&lt;/code&gt;&lt;/pre&gt;&lt;/div&gt;&lt;pre&gt;&lt;code&gt;Model: &amp;quot;sequential&amp;quot;
_________________________________________________________________
Layer (type)                 Output Shape              Param #   
=================================================================
dense (Dense)                (None, 50)                500       
_________________________________________________________________
activation (Activation)      (None, 50)                0         
_________________________________________________________________
dropout (Dropout)            (None, 50)                0         
_________________________________________________________________
dense_1 (Dense)              (None, 50)                2550      
_________________________________________________________________
activation_1 (Activation)    (None, 50)                0         
_________________________________________________________________
dropout_1 (Dropout)          (None, 50)                0         
_________________________________________________________________
dense_2 (Dense)              (None, 1)                 51        
_________________________________________________________________
activation_2 (Activation)    (None, 1)                 0         
=================================================================
Total params: 3,101
Trainable params: 3,101
Non-trainable params: 0
_________________________________________________________________
&lt;/code&gt;&lt;/pre&gt;
&lt;h2 id=&#34;training&#34;&gt;Training&lt;/h2&gt;
&lt;div class=&#34;highlight&#34;&gt;&lt;pre tabindex=&#34;0&#34; style=&#34;color:#f8f8f2;background-color:#272
…
&lt;/span&gt;&lt;/span&gt;&lt;span style=&#34;display:flex;&#34;&gt;&lt;span&gt;                             ])
&lt;/span&gt;&lt;/span&gt;&lt;span style=&#34;display:flex;&#34;&gt;&lt;span&gt;model&lt;span style=&#34;color:#f92672&#34;&gt;.&lt;/span&gt;summary()
&lt;/span&gt;&lt;/span&gt;&lt;/code&gt;&lt;/pre&gt;&lt;/div&gt;&lt;pre&gt;&lt;code&gt;Model: &amp;quot;sequential&amp;quot;
_________________________________________________________________
Layer (type)                 Output Shape              Param #   
=================================================================
flatten (Flatten)            (None, 3072)              0         
_________________________________________________________________
dense (Dense)                (None, 1024)              3146752   
_________________________________________________________________
activation (Activation)      (None, 1024)              0         
_________________________________________________________________
dropout (Dropout)            (None, 1024)              0         
_________________________________________________________________
dense_1 (Dense)              (None, 512)               524800    
_________________________________________________________________
activation_1 (Activation)    (None, 512)               0         
_________________________________________________________________
dropout_1 (Dropout)          (None, 512)               0         
_________________________________________________________________
dense_2 (Dense)              (None, 10)                5130      
_________________________________________________________________
activation_2 (Activation)    (None, 10)                0         
=================================================================
Total params: 3,676,682
Trainable params: 3,676,682
Non-trainable params: 0
_________________________________________________________________
&lt;/code&gt;&lt;/pre&gt;
&lt;h2 id=&#34;training&#34;&gt;Training&lt;/h2&gt;
&lt;div class=&#34;highlight&#34;&gt;&lt;pre tabindex=&#34;0&#34; style=&#34;color:#f8f8f2;background-co
…
&lt;/span&gt;&lt;/span&gt;&lt;span style=&#34;display:flex;&#34;&gt;&lt;span&gt;                             ])
&lt;/span&gt;&lt;/span&gt;&lt;span style=&#34;display:flex;&#34;&gt;&lt;span&gt;model&lt;span style=&#34;color:#f92672&#34;&gt;.&lt;/span&gt;summary()
&lt;/span&gt;&lt;/span&gt;&lt;/code&gt;&lt;/pre&gt;&lt;/div&gt;&lt;pre&gt;&lt;code&gt;Model: &amp;quot;sequential&amp;quot;
_________________________________________________________________
Layer (type)                 Output Shape              Param #   
=================================================================
embedding (Embedding)        (None, 100, 16)           160000    
_________________________________________________________________
dropout (Dropout)            (None, 100, 16)           0         
_________________________________________________________________
flatten (Flatten)            (None, 1600)              0         
_________________________________________________________________
dense (Dense)                (None, 1600)              2561600   
_________________________________________________________________
activation (Activation)      (None, 1600)              0         
_________________________________________________________________
dropout_1 (Dropout)          (None, 1600)              0         
_________________________________________________________________
dense_1 (Dense)              (None, 500)               800500    
_________________________________________________________________
activation_1 (Activation)    (None, 500)               0         
_________________________________________________________________
dropout_2 (Dropout)          (None, 500)               0         
_________________________________________________________________
dense_2 (Dense)              (None, 1)                 501       
_________________________________________________________________
activation_2 (Activation)    (None, 1)                 0         
=================================================================
Total params: 3,522,601
Trainable params: 3,522,601
Non-trainable params: 0
_________________________________________________________________
&lt;/code&gt;&lt;/pre&gt;
&lt;div class=&#34;highlight&#34;&gt;&lt;pre tabindex=&#34;0&#34; style=&#34;color:#f8f8f2;background-color:#272822;-moz-tab-size:4;-o-tab-size:4;tab-size:4
…
