…
es = 10 model = tf.keras.Sequential([ tf.keras.layers.Flatten(input_shape=input_shape), tf.keras.layers.Dense(units=50), tf.keras.layers.Activation(\u0026#39;tanh\u0026#39;), tf.keras.layers.Dense(units=50), tf.keras.layers.Activation(\u0026#39;tanh\u0026#39;), tf.keras.layers.Dense(units=nclasses), tf.keras.layers.Activation(\u0026#39;sigmoid\u0026#39;) ]) model.summary() Model: \u0026quot;sequential\u0026quot; _________________________________________________________________ Layer (type) Output Shape Param # ================================================================= flatten (Flatten) (None, 784) 0 _________________________________________________________________ dense (Dense) (None, 50) 39250 _________________________________________________________________ activation (Activation) (None, 50) 0 _________________________________________________________________ dense_1 (Dense) (None, 50) 2550 _________________________________________________________________ activation_1 (Activation) (None, 50) 0 _________________________________________________________________ dense_2 (Dense) (None, 10) 510 _________________________________________________________________ activation_2 (Activation) (None, 10) 0 ================================================================= Total params: 42,310 Trainable params: 42,310 Non-trainable params: 0 _________________________________________________________________ Training the model optimizer = tf.keras.optimizers.Adam(lr=0.0005) model.compile(optimizer=optimizer, loss=\u0026#39;categorical_crossentropy\u0026#39;, metrics=[\u0026#39;accuracy\u0026#39;]) tf_h
…
n(input_shape=input_shape), tf.keras.layers.Dense(units=50), tf.keras.layers.Activation(\u0026#39;tanh\u0026#39;), tf.keras.layers.Dropout(0.2), tf.keras.layers.Dense(units=50), tf.keras.layers.Activation(\u0026#39;tanh\u0026#39;), tf.keras.layers.Dropout(0.2), tf.keras.layers.Dense(units=nclasses), tf.keras.layers.Activation(\u0026#39;sigmoid\u0026#39;) ]) model.summary() Model: \u0026quot;sequential\u0026quot; _________________________________________________________________ Layer (type) Output Shape Param # ================================================================= flatten (Flatten) (None, 784) 0 _________________________________________________________________ dense (Dense) (None, 50) 39250 _________________________________________________________________ activation (Activation) (None, 50) 0 _________________________________________________________________ dropout (Dropout) (None, 50) 0 _________________________________________________________________ dense_1 (Dense) (None, 50) 2550 _________________________________________________________________ activation_1 (Activation) (None, 50) 0 _________________________________________________________________ dropout_1 (Dropout) (None, 50) 0 _________________________________________________________________ dense_2 (Dense) (None, 10) 510 _________________________________________________________________ activation_2 (Activation) (None, 10) 0 ================================================================= Total params: 42,310 Trainable params: 42,310 Non-trainable params: 0 _________________________________________________________________ optimizer = tf.keras.optimizers.Adam(lr=0.0001) model.compile(optimizer=optimizer, loss=\u0026#39;categorical_crossentropy\u0026#39;, metrics=[\u0026#39;accuracy\u0026#39;]) tf_history_dp = model.f
…
ers.l2(0.00001)), tf.keras.layers.Activation(\u0026#39;relu\u0026#39;), tf.keras.layers.Dropout(0.2), tf.keras.layers.Dense(units=50, kernel_regularizer=tf.keras.regularizers.l2(0.00001)), tf.keras.layers.Activation(\u0026#39;relu\u0026#39;), tf.keras.layers.Dropout(0.2), tf.keras.layers.Dense(units=1), tf.keras.layers.Activation(\u0026#39;sigmoid\u0026#39;) ]) model.summary() Model: \u0026quot;sequential\u0026quot; _________________________________________________________________ Layer (type) Output Shape Param # ================================================================= dense (Dense) (None, 50) 500 _________________________________________________________________ activation (Activation) (None, 50) 0 _________________________________________________________________ dropout (Dropout) (None, 50) 0 _________________________________________________________________ dense_1 (Dense) (None, 50) 2550 _________________________________________________________________ activation_1 (Activation) (None, 50) 0 _________________________________________________________________ dropout_1 (Dropout) (None, 50) 0 _________________________________________________________________ dense_2 (Dense) (None, 1) 51 _________________________________________________________________ activation_2 (Activation) (None, 1) 0 ================================================================= Total params: 3,101 Trainable params: 3,101 Non-trainable params: 0 _________________________________________________________________ Training optimizer = tf.keras.optimizers.Adam(lr=0.001) model.compile(optimizer=optimizer, loss=\u0026#39;binary_crossentropy\u0026#39;, metrics=[\u0026#39;accuracy\u0026#39;]) tf_history_dp = model.
…
nput_shape=input_shape), tf.keras.layers.Dense(units=1024), tf.keras.layers.Activation(\u0026#39;tanh\u0026#39;), tf.keras.layers.Dropout(0.5), tf.keras.layers.Dense(units=512), tf.keras.layers.Activation(\u0026#39;tanh\u0026#39;), tf.keras.layers.Dropout(0.5), tf.keras.layers.Dense(units=nclasses), tf.keras.layers.Activation(\u0026#39;softmax\u0026#39;) ]) model.summary() Model: \u0026quot;sequential\u0026quot; _________________________________________________________________ Layer (type) Output Shape Param # ================================================================= flatten (Flatten) (None, 3072) 0 _________________________________________________________________ dense (Dense) (None, 1024) 3146752 _________________________________________________________________ activation (Activation) (None, 1024) 0 _________________________________________________________________ dropout (Dropout) (None, 1024) 0 _________________________________________________________________ dense_1 (Dense) (None, 512) 524800 _________________________________________________________________ activation_1 (Activation) (None, 512) 0 _________________________________________________________________ dropout_1 (Dropout) (None, 512) 0 _________________________________________________________________ dense_2 (Dense) (None, 10) 5130 _________________________________________________________________ activation_2 (Activation) (None, 10) 0 ================================================================= Total params: 3,676,682 Trainable params: 3,676,682 Non-trainable params: 0 _________________________________________________________________ Training optimizer = tf.keras.optimizers.Adam(lr=0.001) model.compile(optimizer=optimizer, loss=\u0026#39;categorical_crossentropy\u0026#39;, metrics=[\u0026#39;accuracy\u0026#39;]) tf_histor
…
en(), tf.keras.layers.Dense(units=sentence_len*embedding_dim), tf.keras.layers.Activation(\u0026#39;relu\u0026#39;), tf.keras.layers.Dropout(0.4), tf.keras.layers.Dense(units=500), tf.keras.layers.Activation(\u0026#39;relu\u0026#39;), tf.keras.layers.Dropout(0.4), tf.keras.layers.Dense(units=1), tf.keras.layers.Activation(\u0026#39;sigmoid\u0026#39;) ]) model.summary() Model: \u0026quot;sequential\u0026quot; _________________________________________________________________ Layer (type) Output Shape Param # ================================================================= embedding (Embedding) (None, 100, 16) 160000 _________________________________________________________________ dropout (Dropout) (None, 100, 16) 0 _________________________________________________________________ flatten (Flatten) (None, 1600) 0 _________________________________________________________________ dense (Dense) (None, 1600) 2561600 _________________________________________________________________ activation (Activation) (None, 1600) 0 _________________________________________________________________ dropout_1 (Dropout) (None, 1600) 0 _________________________________________________________________ dense_1 (Dense) (None, 500) 800500 _________________________________________________________________ activation_1 (Activation) (None, 500) 0 _________________________________________________________________ dropout_2 (Dropout) (None, 500) 0 _________________________________________________________________ dense_2 (Dense) (None, 1) 501 _________________________________________________________________ activation_2 (Activation) (None, 1) 0 ================================================================= Total params: 3,522,601 Trainable params: 3,522,601 Non-trainable params: 0 _________________________________________________________________ optimizer = tf.keras.optimizers.Adam(lr=0.001) model.compile(optimizer=optimizer, loss=\u0026#39;binary_crossentropy\u0026#39;, metrics=[\u0026#39;accuracy\u0026#39;]) tf_history = model.fit(
…
